…
                sys.stdout.flush()
                netG.train()
                netE.train()
                attE.train()
                attD.train()
        best_H.append(tmp_H[-1])
        print('Parameter setting: beta: {:}%, distance: {:}%, cycle: {:}%, best_acc: seen:{:.2f}%, unseen:{:.2f}%,'
              ' H:{:.2f}%'.format(beta, distance, cycle, tmp_H[-1][0]*100, tmp_H[-1][1]*100, tmp_H[-1][-1]*100))
        tmp_H = []
        best_H_cls = 0.0
    sio.savemat('./best_acc.mat',
            {   'para':itertools.product(beta, distance, cycle),
                'acc':best_H,
            })
Random Seed:  9182
MLP_G(
  (fc1): Linear(in_features=128, out_features=4096, bias=True)
  (fc2): Linear(in_features=4096, out_features=2048, bias=True)
  (lrelu): LeakyReLU(negative_slope=0.2, inplace=True)
  (relu): ReLU(inplace=True)
  (sigmoid): Sigmoid()
)
MLP_D(
  (fc1): Linear(in_features=2112, out_features=1024, bias=True)
  (fc2): Linear(in_features=1024, out_features=1, bias=True)
  (lrelu): LeakyReLU(negative_slope=0.2, inplace=True)
  (sigoid): Sigmoid()
)
MLP_D2(
  (fc1): Linear(in_features=64, out_features=1024, bias=True)
  (fc2): Linear(in_features=1024, out_features=1, bias=True)
  (lrelu): LeakyReLU(negative_slope=0.2, inplace=True)
  (sigmoid): Sigmoid()
)
Encoder(
  (fc1): Linear(in_features=2048, out_features=4096, bias=True)
  (fc2): Linear(in_features=4096, out_features=64, bias=True)
  (lrelu): LeakyReLU(negative_slope=0.2, inplace=True)
  (_mu): Linear(in_features=4096, out_features=64, bias=True)
  (_logvar): Linear(in_features=4096, out_features=64, bias=True)
)
Forward Seen:3.30%, Unseen:3.03%, H:3.16%
EP[0/150]*******************************************************************
G_cost: -12.0463, D2_loss: 2.0669, vae_loss: 3694.8101, loss: 3684.8306
V2S Softmax Seen Acc:23.57, Unseen Acc:7.49, H Acc:11.36
GZSL Classifier Seen Acc: 59.30%, Unseen Acc: 27.74%, H Acc: 37.80%
GZSL Ensemble Seen Acc: 61.72%, Unseen Acc: 16.76%, H Acc: 26.36%
…
