…
                cls = classifier2.CLASSIFIER(opt, syn_unseen_feature,
                                             util.map_label(syn_unseen_label, data.unseenclasses),
                                             data, data.unseenclasses.size(0), _beta1=0.5, _nepoch=25,
                                             generalized=False)
                print('ZSL Classifier: {:.2f}%'.format(cls.cls_acc * 100))
                print('ZSL Ensemble: {:.2f}%'.format(cls.ensemble_acc * 100))
            sys.stdout.flush()
            netG.train()
            netE.train()
            attE.train()
            attD.train()
Random Seed:  9182
MLP_G(
  (fc1): Linear(in_features=376, out_features=4096, bias=True)
  (fc2): Linear(in_features=4096, out_features=2048, bias=True)
  (lrelu): LeakyReLU(negative_slope=0.2, inplace)
  (relu): ReLU(inplace)
  (sigmoid): Sigmoid()
)
MLP_D(
  (fc1): Linear(in_features=2360, out_features=1024, bias=True)
  (fc2): Linear(in_features=1024, out_features=1, bias=True)
  (lrelu): LeakyReLU(negative_slope=0.2, inplace)
  (sigoid): Sigmoid()
)
MLP_D2(
  (fc1): Linear(in_features=312, out_features=1024, bias=True)
  (fc2): Linear(in_features=1024, out_features=1, bias=True)
  (lrelu): LeakyReLU(negative_slope=0.2, inplace)
  (sigmoid): Sigmoid()
)
Encoder(
  (fc1): Linear(in_features=2048, out_features=4096, bias=True)
  (fc2): Linear(in_features=4096, out_features=64, bias=True)
  (lrelu): LeakyReLU(negative_slope=0.2, inplace)
  (_mu): Linear(in_features=4096, out_features=64, bias=True)
  (_logvar): Linear(in_features=4096, out_features=64, bias=True)
)
Forward Seen:0.45%, Unseen:0.17%, H:0.25%
EP[0/150]*******************************************************************
G_cost: -13.6514, D2_loss: 0.4627, vae_loss: 1622.7026, loss: 1609.5139
V2S Softmax Seen Acc:38.31, Unseen Acc:34.92, H Acc:36.54
GZSL Classifier Seen Acc: 52.83%, Unseen Acc: 44.74%, H Acc: 48.45%
GZSL Ensemble Seen Acc: 55.39%, Unseen Acc: 38.61%, H Acc: 45.50%
…
